…
complex': True, 'model_depth': 20, 'swa': False, 'loss': 'wsdr', 'log_amp': False, 'metric': 'pesq', 'train_dataset': 'se', 'valid_dataset': 'se', 'preload': False, 'padding_mode': 'reflect'}
Got 13844 signals and 13844 mixtures.
Got 1539 signals and 1539 mixtures.
SourceSeparator(
  (net): Sequential(
    (0): STFT(
      (stft): STFT(fft_length=1024, hop_length=256, win_length=None)(center=True, pad_mode=reflect, normalized=False, onesided=True)
      (amp2db): AmplitudeToDb(ref=1.0, amin=1e-07)
    )
    (1): UNet(
      (encoder0): Encoder(
        (conv): ComplexConv2d(
          (conv_re): Conv2d(1, 31, kernel_size=(7, 1), stride=(1, 1), padding=(3, 0))
          (conv_im): Conv2d(1, 31, kernel_size=(7, 1), stride=(1, 1), padding=(3, 0))
        )
        (bn): ComplexBatchNorm2d(
          (bn_re): BatchNorm2d(31, eps=1e-05, momentum=0.1, affine=True, track_running_stats=True)
          (bn_im): BatchNorm2d(31, eps=1e-05, momentum=0.1, affine=True, track_running_stats=True)
        )
        (relu): LeakyReLU(negative_slope=0.01, inplace)
      )
      (encoder1): Encoder(
        (conv): ComplexConv2d(
          (conv_re): Conv2d(31, 31, kernel_size=(1, 7), stride=(1, 1), padding=(0, 3))
          (conv_im): Conv2d(31, 31, kernel_size=(1, 7), stride=(1, 1), padding=(0, 3))
        )
        (bn): ComplexBatchNorm2d(
          (bn_re): BatchNorm2d(31, eps=1e-05, momentum=0.1, affine=True, track_running_stats=True)
          (bn_im): BatchNorm2d(31, eps=1e-05, momentum=0.1, affine=True, track_running_stats=True)
        )
        (relu): LeakyReLU(negative_slope=0.01, inplace)
      )
      (encoder2): Encoder(
        (conv): ComplexConv2d(
          (conv_re): Conv2d(31, 62, kernel_size=(6, 4), stride=(2, 2), padding=[2, 1])
          (conv_im): Conv2d(31, 62, kernel_size=(6, 4), stride=(2, 2), padding=[2, 1])
        )
        (bn): ComplexBatchNorm2d(
          (bn_re): BatchNorm2d(62, eps=1e-05, momentum=0.1, affine=True, track_running_stats=True)
          (bn_im): BatchNorm2d(62, eps=1e-05, momentum=0.1, affine=True, track_running_stats=True)
        )
        (relu): LeakyReLU(negative_slope=0.01, inplace)
      )
      (encoder3): Encoder(
        (conv): ComplexConv2d(
          (conv_re): Conv2d(62, 62, kernel_size=(7, 5), stride=(2, 1), padding=[3, 2])
          (conv_im): Conv2d(62, 62, kernel_size=(7, 5), stride=(2, 1), padding=[3, 2])
        )
        (bn): ComplexBatchNorm2d(
          (bn_re): BatchNorm2d(62, eps=1e-05, momentum=0.1, affine=True, track_running_stats=True)
          (bn_im): BatchNorm2d(62, eps=1e-05, momentum=0.1, affine=True, track_running_stats=True)
        )
        (relu): LeakyReLU(negative_slope=0.01, inplace)
      )
      (encoder4): Encoder(
        (conv): ComplexConv2d(
          (conv_re): Conv2d(62, 62, kernel_size=(5, 3), stride=(2, 2), padding=[2, 1])
          (conv_im): Conv2d(62, 62, kernel_size=(5, 3), stride=(2, 2), padding=[2, 1])
        )
        (bn): ComplexBatchNorm2d(
          (bn_re): BatchNorm2d(62, eps=1e-05, momentum=0.1, affine=True, track_running_stats=True)
          (bn_im): BatchNorm2d(62, eps=1e-05, momentum=0.1, affine=True, track_running_stats=True)
        )
        (relu): LeakyReLU(negative_slope=0.01, inplace)
      )
      (encoder5): Encoder(
        (conv): ComplexConv2d(
          (conv_re): Conv2d(62, 62, kernel_size=(5, 3), stride=(2, 1), padding=[2, 1])
          (conv_im): Conv2d(62, 62, kernel_size=(5, 3), stride=(2, 1), padding=[2, 1])
        )
        (bn): ComplexBatchNorm2d(
          (bn_re): BatchNorm2d(62, eps=1e-05, momentum=0.1, affine=True, track_running_stats=True)
          (bn_im): BatchNorm2d(62, eps=1e-05, momentum=0.1, affine=True, track_running_stats=True)
        )
        (relu): LeakyReLU(negative_slope=0.01, inplace)
      )
      (encoder6): Encoder(
        (conv): ComplexConv2d(
          (conv_re): Conv2d(62, 62, kernel_size=(5, 3), stride=(2, 2), padding=[2, 1])
          (conv_im): Conv2d(62, 62, kernel_size=(5, 3), stride=(2, 2), padding=[2, 1])
        )
        (bn): ComplexBatchNorm2d(
          (bn_re): BatchNorm2d(62, eps=1e-05, momentum=0.1, affine=True, track_running_stats=True)
          (bn_im): BatchNorm2d(62, eps=1e-05, momentum=0.1, affine=True, track_running_stats=True)
        )
        (relu): LeakyReLU(negative_slope=0.01, inplace)
      )
      (encoder7): Encoder(
        (conv): ComplexConv2d(
          (conv_re): Conv2d(62, 62, kernel_size=(5, 3), stride=(2, 1), padding=[2, 1])
          (conv_im): Conv2d(62, 62, kernel_size=(5, 3), stride=(2, 1), padding=[2, 1])
        )
        (bn): ComplexBatchNorm2d(
          (bn_re): BatchNorm2d(62, eps=1e-05, momentum=0.1, affine=True, track_running_stats=True)
          (bn_im): BatchNorm2d(62, eps=1e-05, momentum=0.1, affine=True, track_running_stats=True)
        )
        (relu): LeakyReLU(negative_slope=0.01, inplace)
      )
      (encoder8): Encoder(
        (conv): ComplexConv2d(
          (conv_re): Conv2d(62, 62, kernel_size=(5, 3), stride=(2, 2), padding=[2, 1])
          (conv_im): Conv2d(62, 62, kernel_size=(5, 3), stride=(2, 2), padding=[2, 1])
        )
        (bn): ComplexBatchNorm2d(
          (bn_re): BatchNorm2d(62, eps=1e-05, momentum=0.1, affine=True, track_running_stats=True)
          (bn_im): BatchNorm2d(62, eps=1e-05, momentum=0.1, affine=True, track_running_stats=True)
        )
        (relu): LeakyReLU(negative_slope=0.01, inplace)
      )
      (encoder9): Encoder(
        (conv): ComplexConv2d(
          (conv_re): Conv2d(62, 128, kernel_size=(5, 3), stride=(2, 1), padding=[2, 1])
          (conv_im): Conv2d(62, 128, kernel_size=(5, 3), stride=(2, 1), padding=[2, 1])
        )
        (bn): ComplexBatchNorm2d(
          (bn_re): BatchNorm2d(128, eps=1e-05, momentum=0.1, affine=True, track_running_stats=True)
          (bn_im): BatchNorm2d(128, eps=1e-05, momentum=0.1, affine=True, track_running_stats=True)
        )
        (relu): LeakyReLU(negative_slope=0.01, inplace)
      )
      (decoder0): Decoder(
        (transconv): ComplexConvTranspose2d(
          (tconv_re): ConvTranspose2d(128, 62, kernel_size=(4, 3), stride=(2, 1), padding=(1, 1))
          (tconv_im): ConvTranspose2d(128, 62, kernel_size=(4, 3), stride=(2, 1), padding=(1, 1))
        )
        (bn): ComplexBatchNorm2d(
          (bn_re): BatchNorm2d(62, eps=1e-05, momentum=0.1, affine=True, track_running_stats=True)
          (bn_im): BatchNorm2d(62, eps=1e-05, momentum=0.1, affine=True, track_running_stats=True)
        )
        (relu): LeakyReLU(negative_slope=0.01, inplace)
      )
      (decoder1): Decoder(
        (transconv): ComplexConvTranspose2d(
          (tconv_re): ConvTranspose2d(124, 62, kernel_size=(4, 2), stride=(2, 2), padding=(1, 0))
          (tconv_im): ConvTranspose2d(124, 62, kernel_size=(4, 2), stride=(2, 2), padding=(1, 0))
        )
        (bn): ComplexBatchNorm2d(
          (bn_re): BatchNorm2d(62, eps=1e-05, momentum=0.1, affine=True, track_running_stats=True)
          (bn_im): BatchNorm2d(62, eps=1e-05, momentum=0.1, affine=True, track_running_stats=True)
        )
        (relu): LeakyReLU(negative_slope=0.01, inplace)
      )
      (decoder2): Decoder(
        (transconv): ComplexConvTranspose2d(
          (tconv_re): ConvTranspose2d(124, 62, kernel_size=(4, 3), stride=(2, 1), padding=(1, 1))
          (tconv_im): ConvTranspose2d(124, 62, kernel_size=(4, 3), stride=(2, 1), padding=(1, 1))
        )
        (bn): ComplexBatchNorm2d(
          (bn_re): BatchNorm2d(62, eps=1e-05, momentum=0.1, affine=True, track_running_stats=True)
          (bn_im): BatchNorm2d(62, eps=1e-05, momentum=0.1, affine=True, track_running_stats=True)
        )
        (relu): LeakyReLU(negative_slope=0.01, inplace)
      )
      (decoder3): Decoder(
        (transconv): ComplexConvTranspose2d(
          (tconv_re): ConvTranspose2d(124, 62, kernel_size=(4, 2), stride=(2, 2), padding=(1, 0))
          (tconv_im): ConvTranspose2d(124, 62, kernel_size=(4, 2), stride=(2, 2), padding=(1, 0))
        )
        (bn): ComplexBatchNorm2d(
          (bn_re): BatchNorm2d(62, eps=1e-05, momentum=0.1, affine=True, track_running_stats=True)
          (bn_im): BatchNorm2d(62, eps=1e-05, momentum=0.1, affine=True, track_running_stats=True)
        )
        (relu): LeakyReLU(negative_slope=0.01, inplace)
      )
      (decoder4): Decoder(
        (transconv): ComplexConvTranspose2d(
          (tconv_re): ConvTranspose2d(124, 62, kernel_size=(4, 3), stride=(2, 1), padding=(1, 1))
          (tconv_im): ConvTranspose2d(124, 62, kernel_size=(4, 3), stride=(2, 1), padding=(1, 1))
        )
        (bn): ComplexBatchNorm2d(
          (bn_re): BatchNorm2d(62, eps=1e-05, momentum=0.1, affine=True, track_running_stats=True)
          (bn_im): BatchNorm2d(62, eps=1e-05, momentum=0.1, affine=True, track_running_stats=True)
        )
        (relu): LeakyReLU(negative_slope=0.01, inplace)
      )
      (decoder5): Decoder(
        (transconv): ComplexConvTranspose2d(
          (tconv_re): ConvTranspose2d(124, 62, kernel_size=(4, 2), stride=(2, 2), padding=(1, 0))
          (tconv_im): ConvTranspose2d(124, 62, kernel_size=(4, 2), stride=(2, 2), padding=(1, 0))
        )
        (bn): ComplexBatchNorm2d(
          (bn_re): BatchNorm2d(62, eps=1e-05, momentum=0.1, affine=True, track_running_stats=True)
          (bn_im): BatchNorm2d(62, eps=1e-05, momentum=0.1, affine=True, track_running_stats=True)
        )
        (relu): LeakyReLU(negative_slope=0.01, inplace)
      )
      (decoder6): Decoder(
        (transconv): ComplexConvTranspose2d(
          (tconv_re): ConvTranspose2d(124, 62, kernel_size=(6, 3), stride=(2, 1), padding=(2, 1))
          (tconv_im): ConvTranspose2d(124, 62, kernel_size=(6, 3), stride=(2, 1), padding=(2, 1))
        )
        (bn): ComplexBatchNorm2d(
          (bn_re): BatchNorm2d(62, eps=1e-05, momentum=0.1, affine=True, track_running_stats=True)
          (bn_im): BatchNorm2d(62, eps=1e-05, momentum=0.1, affine=True, track_running_stats=True)
        )
        (relu): LeakyReLU(negative_slope=0.01, inplace)
      )
      (decoder7): Decoder(
        (transconv): ComplexConvTranspose2d(
          (tconv_re): ConvTranspose2d(124, 62, kernel_size=(7, 5), stride=(2, 2), padding=(2, 1))
          (tconv_im): ConvTranspose2d(124, 62, kernel_size=(7, 5), stride=(2, 2), padding=(2, 1))
        )
        (bn): ComplexBatchNorm2d(
          (bn_re): BatchNorm2d(62, eps=1e-05, momentum=0.1, affine=True, track_running_stats=True)
          (bn_im): BatchNorm2d(62, eps=1e-05, momentum=0.1, affine=True, track_running_stats=True)
        )
        (relu): LeakyReLU(negative_slope=0.01, inplace)
      )
      (decoder8): Decoder(
        (transconv): ComplexConvTranspose2d(
          (tconv_re): ConvTranspose2d(93, 62, kernel_size=(1, 7), stride=(1, 1), padding=(0, 3))
          (tconv_im): ConvTranspose2d(93, 62, kernel_size=(1, 7), stride=(1, 1), padding=(0, 3))
        )
        (bn): ComplexBatchNorm2d(
          (bn_re): BatchNorm2d(62, eps=1e-05, momentum=0.1, affine=True, track_running_stats=True)
          (bn_im): BatchNorm2d(62, eps=1e-05, momentum=0.1, affine=True, track_running_stats=True)
        )
        (relu): LeakyReLU(negative_slope=0.01, inplace)
      )
      (decoder9): Decoder(
        (transconv): ComplexConvTranspose2d(
          (tconv_re): ConvTranspose2d(93, 62, kernel_size=(7, 1), stride=(1, 1), padding=(3, 0))
          (tconv_im): ConvTranspose2d(93, 62, kernel_size=(7, 1), stride=(1, 1), padding=(3, 0))
        )
        (bn): ComplexBatchNorm2d(
          (bn_re): BatchNorm2d(62, eps=1e-05, momentum=0.1, affine=True, track_running_stats=True)
          (bn_im): BatchNorm2d(62, eps=1e-05, momentum=0.1, affine=True, track_running_stats=True)
        )
        (relu): LeakyReLU(negative_slope=0.01, inplace)
      )
      (linear): ComplexConv2d(
        (conv_re): Conv2d(62, 1, kernel_size=(1, 1), stride=(1, 1))
        (conv_im): Conv2d(62, 1, kernel_size=(1, 1), stride=(1, 1))
      )
      (decoders): ModuleList(
        (0): Decoder(
          (transconv): ComplexConvTranspose2d(
            (tconv_re): ConvTranspose2d(128, 62, kernel_size=(4, 3), stride=(2, 1), padding=(1, 1))
            (tconv_im): ConvTranspose2d(128, 62, kernel_size=(4, 3), stride=(2, 1), padding=(1, 1))
          )
          (bn): ComplexBatchNorm2d(
            (bn_re): BatchNorm2d(62, eps=1e-05, momentum=0.1, affine=True, track_running_stats=True)
            (bn_im): BatchNorm2d(62, eps=1e-05, momentum=0.1, affine=True, track_running_stats=True)
          )
          (relu): LeakyReLU(negative_slope=0.01, inplace)
        )
        (1): Decoder(
          (transconv): ComplexConvTranspose2d(
            (tconv_re): ConvTranspose2d(124, 62, kernel_size=(4, 2), stride=(2, 2), padding=(1, 0))
            (tconv_im): ConvTranspose2d(124, 62, kernel_size=(4, 2), stride=(2, 2), padding=(1, 0))
          )
          (bn): ComplexBatchNorm2d(
            (bn_re): BatchNorm2d(62, eps=1e-05, momentum=0.1, affine=True, track_running_stats=True)
            (bn_im): BatchNorm2d(62, eps=1e-05, momentum=0.1, affine=True, track_running_stats=True)
          )
          (relu): LeakyReLU(negative_slope=0.01, inplace)
        )
        (2): Decoder(
          (transconv): ComplexConvTranspose2d(
            (tconv_re): ConvTranspose2d(124, 62, kernel_size=(4, 3), stride=(2, 1), padding=(1, 1))
            (tconv_im): ConvTranspose2d(124, 62, kernel_size=(4, 3), stride=(2, 1), padding=(1, 1))
          )
          (bn): ComplexBatchNorm2d(
            (bn_re): BatchNorm2d(62, eps=1e-05, momentum=0.1, affine=True, track_running_stats=True)
            (bn_im): BatchNorm2d(62, eps=1e-05, momentum=0.1, affine=True, track_running_stats=True)
          )
          (relu): LeakyReLU(negative_slope=0.01, inplace)
        )
        (3): Decoder(
          (transconv): ComplexConvTranspose2d(
            (tconv_re): ConvTranspose2d(124, 62, kernel_size=(4, 2), stride=(2, 2), padding=(1, 0))
            (tconv_im): ConvTranspose2d(124, 62, kernel_size=(4, 2), stride=(2, 2), padding=(1, 0))
          )
          (bn): ComplexBatchNorm2d(
            (bn_re): BatchNorm2d(62, eps=1e-05, momentum=0.1, affine=True, track_running_stats=True)
            (bn_im): BatchNorm2d(62, eps=1e-05, momentum=0.1, affine=True, track_running_stats=True)
          )
          (relu): LeakyReLU(negative_slope=0.01, inplace)
        )
        (4): Decoder(
          (transconv): ComplexConvTranspose2d(
            (tconv_re): ConvTranspose2d(124, 62, kernel_size=(4, 3), stride=(2, 1), padding=(1, 1))
            (tconv_im): ConvTranspose2d(124, 62, kernel_size=(4, 3), stride=(2, 1), padding=(1, 1))
          )
          (bn): ComplexBatchNorm2d(
            (bn_re): BatchNorm2d(62, eps=1e-05, momentum=0.1, affine=True, track_running_stats=True)
            (bn_im): BatchNorm2d(62, eps=1e-05, momentum=0.1, affine=True, track_running_stats=True)
          )
          (relu): LeakyReLU(negative_slope=0.01, inplace)
        )
        (5): Decoder(
          (transconv): ComplexConvTranspose2d(
            (tconv_re): ConvTranspose2d(124, 62, kernel_size=(4, 2), stride=(2, 2), padding=(1, 0))
            (tconv_im): ConvTranspose2d(124, 62, kernel_size=(4, 2), stride=(2, 2), padding=(1, 0))
          )
          (bn): ComplexBatchNorm2d(
            (bn_re): BatchNorm2d(62, eps=1e-05, momentum=0.1, affine=True, track_running_stats=True)
            (bn_im): BatchNorm2d(62, eps=1e-05, momentum=0.1, affine=True, track_running_stats=True)
          )
          (relu): LeakyReLU(negative_slope=0.01, inplace)
        )
        (6): Decoder(
          (transconv): ComplexConvTranspose2d(
            (tconv_re): ConvTranspose2d(124, 62, kernel_size=(6, 3), stride=(2, 1), padding=(2, 1))
            (tconv_im): ConvTranspose2d(124, 62, kernel_size=(6, 3), stride=(2, 1), padding=(2, 1))
          )
          (bn): ComplexBatchNorm2d(
            (bn_re): BatchNorm2d(62, eps=1e-05, momentum=0.1, affine=True, track_running_stats=True)
            (bn_im): BatchNorm2d(62, eps=1e-05, momentum=0.1, affine=True, track_running_stats=True)
          )
          (relu): LeakyReLU(negative_slope=0.01, inplace)
        )
        (7): Decoder(
          (transconv): ComplexConvTranspose2d(
            (tconv_re): ConvTranspose2d(124, 62, kernel_size=(7, 5), stride=(2, 2), padding=(2, 1))
            (tconv_im): ConvTranspose2d(124, 62, kernel_size=(7, 5), stride=(2, 2), padding=(2, 1))
          )
          (bn): ComplexBatchNorm2d(
            (bn_re): BatchNorm2d(62, eps=1e-05, momentum=0.1, affine=True, track_running_stats=True)
            (bn_im): BatchNorm2d(62, eps=1e-05, momentum=0.1, affine=True, track_running_stats=True)
          )
          (relu): LeakyReLU(negative_slope=0.01, inplace)
        )
        (8): Decoder(
          (transconv): ComplexConvTranspose2d(
            (tconv_re): ConvTranspose2d(93, 62, kernel_size=(1, 7), stride=(1, 1), padding=(0, 3))
            (tconv_im): ConvTranspose2d(93, 62, kernel_size=(1, 7), stride=(1, 1), padding=(0, 3))
          )
          (bn): ComplexBatchNorm2d(
            (bn_re): BatchNorm2d(62, eps=1e-05, momentum=0.1, affine=True, track_running_stats=True)
            (bn_im): BatchNorm2d(62, eps=1e-05, momentum=0.1, affine=True, track_running_stats=True)
          )
          (relu): LeakyReLU(negative_slope=0.01, inplace)
        )
        (9): Decoder(
          (transconv): ComplexConvTranspose2d(
            (tconv_re): ConvTranspose2d(93, 62, kernel_size=(7, 1), stride=(1, 1), padding=(3, 0))
            (tconv_im): ConvTranspose2d(93, 62, kernel_size=(7, 1), stride=(1, 1), padding=(3, 0))
          )
          (bn): ComplexBatchNorm2d(
            (bn_re): BatchNorm2d(62, eps=1e-05, momentum=0.1, affine=True, track_running_stats=True)
            (bn_im): BatchNorm2d(62, eps=1e-05, momentum=0.1, affine=True, track_running_stats=True)
          )
          (relu): LeakyReLU(negative_slope=0.01, inplace)
        )
      )
      (encoders): ModuleList(
        (0): Encoder(
          (conv): ComplexConv2d(
            (conv_re): Conv2d(1, 31, kernel_size=(7, 1), stride=(1, 1), padding=(3, 0))
            (conv_im): Conv2d(1, 31, kernel_size=(7, 1), stride=(1, 1), padding=(3, 0))
          )
          (bn): ComplexBatchNorm2d(
            (bn_re): BatchNorm2d(31, eps=1e-05, momentum=0.1, affine=True, track_running_stats=True)
            (bn_im): BatchNorm2d(31, eps=1e-05, momentum=0.1, affine=True, track_running_stats=True)
          )
          (relu): LeakyReLU(negative_slope=0.01, inplace)
        )
        (1): Encoder(
          (conv): ComplexConv2d(
            (conv_re): Conv2d(31, 31, kernel_size=(1, 7), stride=(1, 1), padding=(0, 3))
            (conv_im): Conv2d(31, 31, kernel_size=(1, 7), stride=(1, 1), padding=(0, 3))
          )
          (bn): ComplexBatchNorm2d(
            (bn_re): BatchNorm2d(31, eps=1e-05, momentum=0.1, affine=True, track_running_stats=True)
            (bn_im): BatchNorm2d(31, eps=1e-05, momentum=0.1, affine=True, track_running_stats=True)
          )
          (relu): LeakyReLU(negative_slope=0.01, inplace)
        )
        (2): Encoder(
          (conv): ComplexConv2d(
            (conv_re): Conv2d(31, 62, kernel_size=(6, 4), stride=(2, 2), padding=[2, 1])
            (conv_im): Conv2d(31, 62, kernel_size=(6, 4), stride=(2, 2), padding=[2, 1])
          )
          (bn): ComplexBatchNorm2d(
            (bn_re): BatchNorm2d(62, eps=1e-05, momentum=0.1, affine=True, track_running_stats=True)
            (bn_im): BatchNorm2d(62, eps=1e-05, momentum=0.1, affine=True, track_running_stats=True)
          )
          (relu): LeakyReLU(negative_slope=0.01, inplace)
        )
        (3): Encoder(
          (conv): ComplexConv2d(
            (conv_re): Conv2d(62, 62, kernel_size=(7, 5), stride=(2, 1), padding=[3, 2])
            (conv_im): Conv2d(62, 62, kernel_size=(7, 5), stride=(2, 1), padding=[3, 2])
          )
          (bn): ComplexBatchNorm2d(
            (bn_re): BatchNorm2d(62, eps=1e-05, momentum=0.1, affine=True, track_running_stats=True)
            (bn_im): BatchNorm2d(62, eps=1e-05, momentum=0.1, affine=True, track_running_stats=True)
          )
          (relu): LeakyReLU(negative_slope=0.01, inplace)
        )
        (4): Encoder(
          (conv): ComplexConv2d(
            (conv_re): Conv2d(62, 62, kernel_size=(5, 3), stride=(2, 2), padding=[2, 1])
            (conv_im): Conv2d(62, 62, kernel_size=(5, 3), stride=(2, 2), padding=[2, 1])
          )
          (bn): ComplexBatchNorm2d(
            (bn_re): BatchNorm2d(62, eps=1e-05, momentum=0.1, affine=True, track_running_stats=True)
            (bn_im): BatchNorm2d(62, eps=1e-05, momentum=0.1, affine=True, track_running_stats=True)
          )
          (relu): LeakyReLU(negative_slope=0.01, inplace)
        )
        (5): Encoder(
          (conv): ComplexConv2d(
            (conv_re): Conv2d(62, 62, kernel_size=(5, 3), stride=(2, 1), padding=[2, 1])
            (conv_im): Conv2d(62, 62, kernel_size=(5, 3), stride=(2, 1), padding=[2, 1])
          )
          (bn): ComplexBatchNorm2d(
            (bn_re): BatchNorm2d(62, eps=1e-05, momentum=0.1, affine=True, track_running_stats=True)
            (bn_im): BatchNorm2d(62, eps=1e-05, momentum=0.1, affine=True, track_running_stats=True)
          )
          (relu): LeakyReLU(negative_slope=0.01, inplace)
        )
        (6): Encoder(
          (conv): ComplexConv2d(
            (conv_re): Conv2d(62, 62, kernel_size=(5, 3), stride=(2, 2), padding=[2, 1])
            (conv_im): Conv2d(62, 62, kernel_size=(5, 3), stride=(2, 2), padding=[2, 1])
          )
          (bn): ComplexBatchNorm2d(
            (bn_re): BatchNorm2d(62, eps=1e-05, momentum=0.1, affine=True, track_running_stats=True)
            (bn_im): BatchNorm2d(62, eps=1e-05, momentum=0.1, affine=True, track_running_stats=True)
          )
          (relu): LeakyReLU(negative_slope=0.01, inplace)
        )
        (7): Encoder(
          (conv): ComplexConv2d(
            (conv_re): Conv2d(62, 62, kernel_size=(5, 3), stride=(2, 1), padding=[2, 1])
            (conv_im): Conv2d(62, 62, kernel_size=(5, 3), stride=(2, 1), padding=[2, 1])
          )
          (bn): ComplexBatchNorm2d(
            (bn_re): BatchNorm2d(62, eps=1e-05, momentum=0.1, affine=True, track_running_stats=True)
            (bn_im): BatchNorm2d(62, eps=1e-05, momentum=0.1, affine=True, track_running_stats=True)
          )
          (relu): LeakyReLU(negative_slope=0.01, inplace)
        )
        (8): Encoder(
          (conv): ComplexConv2d(
            (conv_re): Conv2d(62, 62, kernel_size=(5, 3), stride=(2, 2), padding=[2, 1])
            (conv_im): Conv2d(62, 62, kernel_size=(5, 3), stride=(2, 2), padding=[2, 1])
          )
          (bn): ComplexBatchNorm2d(
            (bn_re): BatchNorm2d(62, eps=1e-05, momentum=0.1, affine=True, track_running_stats=True)
            (bn_im): BatchNorm2d(62, eps=1e-05, momentum=0.1, affine=True, track_running_stats=True)
          )
          (relu): LeakyReLU(negative_slope=0.01, inplace)
        )
        (9): Encoder(
          (conv): ComplexConv2d(
            (conv_re): Conv2d(62, 128, kernel_size=(5, 3), stride=(2, 1), padding=[2, 1])
            (conv_im): Conv2d(62, 128, kernel_size=(5, 3), stride=(2, 1), padding=[2, 1])
          )
          (bn): ComplexBatchNorm2d(
            (bn_re): BatchNorm2d(128, eps=1e-05, momentum=0.1, affine=True, track_running_stats=True)
            (bn_im): BatchNorm2d(128, eps=1e-05, momentum=0.1, affine=True, track_running_stats=True)
          )
          (relu): LeakyReLU(negative_slope=0.01, inplace)
        )
      )
    )
    (2): ApplyMask(
      (amp2db): DbToAmplitude(ref=1.0)
    )
    (3): ISTFT(
      (amp2db): DbToAmplitude(ref=1.0)
    )
  )
)
Loaded, defaultdict(<class 'float'>, {'max_train_metric': -100000000.0, 'max_val_metric': -100000000.0, 'max_test_metric': -100000000.0, 'logdir': 'log_se', 'timestamp': '20200918_072312', 'clip_gradient_norm': False, 'is_data_dict': True, 'step': 3500.0, 'train_loss': -0.9406729618310928, 'train_metric': nan, 'val_loss': -0.945164491039838, 'val_metric': nan})
…
